mnist_cnn.onnx (onnx, 159769 bytes, 4 tensors)

fc1.weight f4 [50, 784]
00000000: 525b 933c 6987 84bc 4374 f0bb d0ed 853c
00000010: c26a 0bbd d010 ac3c 7f56 febb 0973 913c
00000020: 241c 953b f5df 9cbb 4781 1b3c 859b b03a
00000030: 6faf 383c 7c0c 8abc 2ccf 45bb 3ee0 6dbb
00000040: bb0b 9c3b 750b 12ba a75c fc3c d44c 2f3c
00000050: 68b3 60bc 9f18 b4bc 1cbd d1bb 8c97 81bc
00000060: 4a4c 42bc b2d1 a93a f903 ab3c faa0 9b3c
00000070: 32b3 10bd 02fa b13c 50ad 1c3c e20f 093d
00000080: 6db8 bd3c fa18 07bd 925a 18bd eff1 bbbc
00000090: 5c9e c73c ca18 24bc a859 443c 0987 bdbc
000000a0: 8b56 923c 6650 cfbc ce88 bf3c e5ef e4bb
000000b0: 571b dcbc cdd6 843c 84c7 abbc 137e 543b
000000c0: bfa7 81bc 1391 b5bb 14d0 19bd 020d a0bc
000000d0: 615d 9b3c 7306 15bc 7f02 103d a920 e73c
000000e0: 47c1 08bb 4dae c6bc 42c5 ae3c 5706 223c
000000f0: 8bc2 c2bc f4d5 b93c ddc5 9d3c 7af9 c83c
00000100: 392c fdbc 2eae 76bc c1ea 61bc 418c c6bb
00000110: 3bf1 43bd bb44 39bd 5513 b63a 9637 cebc
00000120: 7f66 0bbc bd29 0bbc a62b 423c 951f 303c
00000130: 873c 953c ba22 c83c b54d 0dbd 4b08 5d3c
00000140: 57da e4bc 058f eebc 015c e63a 7201 d5bb
00000150: a170 a83c 37d5 acbc 5ebe 03bd c29f bf3c
00000160: afc5 c1bb 879a 963c 4eda 943b 9af9 33bd
00000170: 1535 b6bc f591 59bc 0197 52bd f7b7 68bd
00000180: efef 07bd 0ef2 4ebd 2377 78bd 667d 68bd
00000190: 4886 bebc 6a68 48bd 4171 f43c f35d 303d
000001a0: e020 f9bb 521e 80bc eed5 253d 89c1 f8ba
000001b0: 8282 a93c 3bf5 9f3b 9067 353c fb24 d73c
000001c0: 1e03 093d 0b8a c5bc f54f 853b 2793 d53c
000001d0: 475b e73c 2eaf ab3c f7d8 16bd ced0 4ebd
000001e0: b1ec 7dbd 749f 5bbd 12fb 29bd e10a aebd
000001f0: 9b1b cbbc 88ca a8bd 7638 d8bd add1 5bbd
00000200: 849d c8bc 1c9f 43bc 489c 5abc 5199 4c3d
00000210: 0ca2 923d e477 8c3d 4a72 563d 8578 2e3d
00000220: f469 003d d733 f63b d36c d7bc a4f5 fcbc
00000230: e174 89bc e6da 95bb fee6 b7bc 4214 293c
00000240: 7489 643c 4f6f 42bc 1521 e3bb ce62 c3bb
00000250: 3855 a23c 96f3 623d db2d 11bd d8d6 583c
00000260: 1668 6cbd dc5f dcbd 8b88 e5bd f7de 51bd
00000270: 9678 46bd 751b 36bd e707 09bd e235 dcbc
00000280: fa1d 22bd 5994 093d 17e7 503d 8276 a93d
00000290: 3453 8e3c 1484 6f3c 4e39 28bc c15f 0abc
000002a0: de8c ecbc a7bc 88bc f442 20bc 126b 9c3c
000002b0: a7dc 183c abc4 453c b0b2 233d 7c63 8d3d
000002c0: 6b60 c43d 230b a83d 645d 163d 5f30 323d
000002d0: cf81 c0bc 71cc 36bd 7c37 4fbd 9bcb b13c
000002e0: 2ea1 f73c cbd4 a43d bd0e 50bd 1fa3 383c
000002f0: 7814 9abb df9a cfbc 2d4b 703d e74b 483d
00000300: 257b 883c 96a2 623c 0ae7 0d3d d04b c5bc
00000310: bc4f 863c 0b10 bb3c c5e2 103d 6486 70bc
00000320: da94 723b 5356 07bd e4e0 da3c 0574 3c3d
00000330: 4dd1 093e 8bff d83d 7509 af3d d150 22bb
00000340: e4d7 a4bd 2b16 38bd 53fa fcbc fa4c c83d
00000350: 0f65 003e 907f 3a3e 26cc 0a3e 1667 c43d
00000360: ffd0 593d 755a 0abd 6497 d53c fa53 833d
00000370: 0ec9 0c3c 3965 873d 3a8f 65bc 7657 cbbc
00000380: e3e9 8c3c 38b4 cabc d19c 2cbc da2e ea3c
00000390: e00f a73c 87e8 ed3c 543e 0e3d f233 8d3d
000003a0: bc1a fe3d e76c df3d cda6 da3c c10f 9fbc
000003b0: 50b2 e2bd 9704 c4bd 247b a9bd b4d9 e2bc
000003c0: dd0c 463d 8fd3 db3d ae96 b03d f1fd e73c
000003d0: c2a1 ddbb 3490 1fbc 2483 cdbc de6d efbb
000003e0: 96d3 413c 7399 723d 57be 143d a963 69bc
000003f0: f770 9f3a 1f51 933c 7d0b 813a d416 97bc
0.01798788 -0.01617785 -0.007338078 0.01634875 -0.03403736 0.02100411 -0.007761776 0.017755048
0.0045504738 -0.00478744 0.009491271 0.0013474083 0.011272295 -0.016851656 -0.0030183299 -0.003629699
0.0047621406 -0.0005571165 0.030805899 0.01069947 -0.013714649 -0.021984397 -0.0064007174 -0.015819333
-0.011859009 0.0012956171 0.020875918 0.018997658 -0.035327144 0.021725658 0.009562805 0.033462413
0.02315923 -0.032982804 -0.03719575 -0.022942511 0.024367504 -0.010015676 0.011984266 -0.023135679
0.017863533 -0.025306892 0.023380663 -0.0069866055 -0.026868505 0.016215706 -0.02096916 0.003242378
-0.015827058 -0.005540976 -0.037551954 -0.019537453 0.018965425 -0.009095776 0.03515863 0.028213816
-0.0020867155 -0.024253035 0.021334294 0.009889207 -0.023774406 0.022685029 0.019259388 0.024533022
-0.030904876 -0.015056176 -0.01378888 -0.0060592 -0.047837477 -0.045231562 0.001389126 -0.02517299
-0.008508324 -0.008493838 0.011851227 0.010749717 0.018217338 0.024430621 -0.034497935 0.013490747
-0.027936144 -0.029120931 0.0017575027 -0.0065004164 0.020561518 -0.021097763 -0.03216397 0.023391608
-0.0059134583 0.018384231 0.0045426255 -0.04393921 -0.022242108 -0.013279428 -0.05141354 -0.056816068
-0.033187803 -0.05052381 -0.060660493 -0.056760214 -0.02325739 -0.048927702 0.02983916 0.043058347
-0.007602796 -0.015639458 0.040487222 -0.0018978576 0.020692114 0.0048815287 0.0110720545 0.02626275
0.03345024 -0.024113676 0.0040683695 0.026071144 0.028241767 0.020957556 -0.036828008 -0.0504921
-0.061993305 -0.053618863 -0.041499205 -0.08498169 -0.024793437 -0.08241755 -0.10557644 -0.05366676
-0.024489172 -0.01193979 -0.013342924 0.0499509 0.07159814 0.06858805 0.05235509 0.042595405
0.031351045 0.007513504 -0.026297009 -0.03087885 -0.016779365 -0.004573214 -0.022449013 0.010319771
0.013948787 -0.011867358 -0.006931434 -0.005962706 0.019816026 0.055408083 -0.03544412 0.0132348165
-0.05771645 -0.10760471 -0.11207684 -0.051238026 -0.048454843 -0.04445978 -0.033454802 -0.026881162
-0.03957937 0.03358874 0.051001634 0.08274557 0.017373659 0.014618892 -0.010267569 -0.008445681
-0.028875764 -0.016691519 -0.009781588 0.019094024 0.009329951 0.012070815 0.03996533 0.06903741
0.09588703 0.08205249 0.036710158 0.04350316 -0.023499398 -0.044628564 -0.050590023 0.021703532
0.030228224 0.080483995 -0.050795306 0.01126936 -0.004702147 -0.025342403 0.058665443 0.04890051
0.016660282 0.013832709 0.034644164 -0.024084002 0.016395442 0.022834798 0.035372514 -0.014680479
0.0037014992 -0.03304131 0.026718564 0.046009082 0.13458748 0.10595616 0.08546726 -0.0024767409
-0.0804899 -0.044943016 -0.030881083 0.09780307 0.12538551 0.18212724 0.13554439 0.095899746
0.05317783 -0.033777673 0.026073165 0.06412502 0.008592857 0.066111036 -0.014011199 -0.024821978
0.01720137 -0.024744138 -0.010535435 0.028586794 0.020393312 0.029041542 0.03472741 0.068946734
0.12407443 0.10909443 0.026690865 -0.019416692 -0.11069167 -0.09571188 -0.0827544 -0.0276917
0.04835211 0.10733711 0.0862249 0.02831933 -0.006763668 -0.009738971 -0.025086947 -0.0073067984
0.011830231 0.05922837 0.036314335 -0.014244952 0.0012164403 0.017983017 0.0009845343 -0.018443502

fc1.bias f4 [50]
00000000: d897 10bc 99c5 c73c dd4b 0b3d d3b4 173d
00000010: b1a4 d03c 6799 8dbc 5e89 743d 521a c43c
00000020: 78d0 993d 465f 383d a6bb 97bc cf97 fe3c
00000030: d137 253b 60cb 8fbc 7506 30bd 87bc d2bc
00000040: 1b2c 823d c739 05bc e5cc 9c3c a8e7 0d3d
00000050: 20bb 873c 1978 02bd 8853 b4bc 6640 693d
00000060: a832 2ebd 50d2 c6bb 6ced 823b a9d8 b3bb
00000070: e0c7 f4bc d4b6 e1ba 8535 b43c aa76 a2bc
00000080: a081 4c3c 8e03 ad3c f5e7 4e3d bb31 01bc
00000090: 8053 25bd 6441 9f3c c41e 9e3d cbcc 0b3c
000000a0: 5efe 25bd e937 39bc e6b7 6e3c 77e9 af3c
000000b0: 106c 80bb 1f24 8fbd bfe1 cb3c f515 e5bc
000000c0: d7fa 793d f24a d43c
-0.008825265 0.024386214 0.034007896 0.03703768 0.025469156 -0.017285062 0.059701316 0.023938332
0.075104654 0.045012735 -0.018522095 0.031078247 0.002521027 -0.017553031 -0.042974908 -0.025724662
0.06356069 -0.008131451 0.01914067 0.034644753 0.01656872 -0.031852815 -0.022012487 0.05694618
-0.04252878 -0.0060675517 0.003995588 -0.0054884744 -0.029880464 -0.0017220625 0.021998176 -0.019831974
0.012482077 0.02111986 0.05051418 -0.007885392 -0.040362835 0.01944036 0.07720712 0.008532713
-0.040525787 -0.011304834 0.014570212 0.02147363 -0.003919132 -0.069893114 0.024887918 -0.027964571
0.061030235 0.025914643

fc2.weight f4 [10, 50]
00000000: bb70 0abf caaa 4e3d 0ec4 f0bd 7956 b23d
00000010: eb3b 21be 29d3 b93d 3beb c5bc ba8d 4dbe
00000020: 43e7 d3be 1eae 0ebf 1509 80be 9faa 97bd
00000030: a842 a13e b6e2 90bd 1a13 203e b43d 8abe
00000040: 334b d9bd 06b3 553e 9dac a0bd f1cd 6b3e
00000050: 30ad 94be eff1 10be ae5f adbe 21f5 003e
00000060: df7c 3bbe a4e4 c43d d81b 8b3e ef06 05be
00000070: dbc5 dfbd 3578 52be 4653 acbc 56e6 4cbe
00000080: 6e7e 19bf b008 c7be acf4 5c3e 9abc bdbe
00000090: 869b 003e 872c 49bd d20b 9e3d b18c b93d
000000a0: 6bd5 9fbe db6b 4a3e 8f4d 9f3e 4a81 f73d
000000b0: 1b55 55be 5f58 3e3d be82 8ebe 50ee 4abe
000000c0: 48da 7a3e 45e3 013e a7f6 8bbe e564 813d
000000d0: 0d47 a4bd 458b 3bbe 3d4a 51be a622 b3be
000000e0: 27d2 a4be 3cce 3c3c c56e c13d 6a11 2fbe
000000f0: c8d9 ca3d b80c d3be 02ba 04bf 904e 343e
00000100: 09d0 24bd 55f9 22be 161a 00bf f71e 0ebe
00000110: e23a 16bf 73ab 8ebd d8f7 383e ef44 f23d
00000120: abe4 2c3e 2cb7 7cb9 be78 8d3e cdee a9be
00000130: 708a afbc d7b3 193e 8e4f 443d 7ea7 f63d
00000140: b813 b4be 51f1 a7be 83ae 683e faf8 a53d
00000150: 9811 4cbe e378 b9be e2b3 ba3d d37c 733e
00000160: 3f5f 0cbe bfbf 74be 57ed 533d 6d83 1ebe
00000170: eac9 7dbd 8c7a cebe b936 643e 12af 86be
00000180: c54a 6c3e e38d 4d3d 7c8f a0bd 2727 babe
00000190: b424 8fbe 6a37 983d 17b9 fabe e654 9b3e
000001a0: 25a1 7b3e ce95 45bd a4fc babe 9c31 5bbe
000001b0: 4bd5 5fbe 2e4f 61be a708 043d f989 e8bc
000001c0: c68d 063d 080e 0cbd 44ce 233e acea 843e
000001d0: c693 1a3e 5fb8 0e3e b05f cb3e 9395 cdbe
000001e0: 19ad 433d 16fa 29bf 443e 873e db8f 66be
000001f0: 7af2 ea3d a64e 043e de4c aa3d f601 053e
00000200: 700c a7bb 0286 03be 8831 073e bd29 2c3d
00000210: c6c1 adbd dbe2 18be c825 9a3e 9a2a 9b3e
00000220: cad4 9dbe e1b1 a13d d1c6 dd3d 6151 6f3e
00000230: edc0 b13d ab93 adbe a4a1 5d3e a4d3 93be
00000240: 32dc 963c e74f 7dbe b457 ba3e 1e36 31bf
00000250: c78f dbbd 42a5 0e3e 07f5 57be aa72 1a3e
00000260: 5267 4abe c101 0fbe 9ea3 773d 278a 973e
00000270: d920 c33d d7a3 393e 1603 7e3b 297e 853e
00000280: 3201 1bbe 8f4f f6be 56f1 82be 1431 ed3b
00000290: be8b 0d3e e170 263e eaad 3b3e 8646 08bf
000002a0: c097 0dbe 2e8f bcbe 5ac1 98bd 78e6 d1be
000002b0: 1bf4 f4bc d00f 5a3e 2b79 0d3e 52aa b1bd
000002c0: 4a8d a73e 506f babd b3cf 56be b952 36be
000002d0: c3ff 0f3e a7d7 fabd 0a02 183e 5091 b9be
000002e0: 8eb9 7a3d 7420 ce3c 0a2a 16be 4bb5 af3e
000002f0: b1f9 93bd 8746 43be 61a5 17bf b273 f4bd
00000300: 6a00 b3bd 1642 983d 2853 c73c 2a85 6abe
00000310: 1868 4dbe ffdf 6a3e 7933 143e 976e d73b
00000320: 7c09 4a3e af8b 59bd aa2e b53e b296 893e
00000330: e1d0 61be 4759 68be 1c5b c13d 430f 0ebe
00000340: 06ce 20be d1e8 593e 6be1 5fbe 3f8b 943d
00000350: 6151 0ebc e395 20bf fc2a 34bd 32b7 b3be
00000360: 78c5 79bd e1a7 55bd 073e f83c 93d4 c13d
00000370: 90f9 393c 06be 6dbe 0d30 8d3d 635f cfbe
00000380: 9a09 07be ff5a 10bf dda0 9cbe d9a8 41bd
00000390: 9932 453e 6012 0bbf 48e3 1bbf 1718 eebd
000003a0: 7ba9 813d fa98 173e 3c33 31bf 382f f43c
000003b0: 8935 113e a553 933d b5c6 84be 0b5a 17be
000003c0: 78c3 cf3d 5125 cd3e fd08 c4be f226 323e
000003d0: dba9 d6bd 6828 773e fa52 9bbe 52bc a13e
000003e0: 401a c7be 66a4 473e 6025 a13d a731 2e3e
000003f0: 8319 103e 3e50 173e c11f a8bd be16 103e
-0.54078263 0.050455846 -0.117561445 0.087078996 -0.15745513 0.09073479 -0.024160018 -0.20073596
-0.41387376 -0.5573443 -0.2500693 -0.0740559 0.31496167 -0.07074492 0.15632287 -0.270002
-0.10610046 0.20869073 -0.07845423 0.23027779 -0.29038382 -0.1415479 -0.3386206 0.1259351
-0.18309353 0.09613922 0.2716968 -0.12990926 -0.1092641 -0.20553668 -0.021035802 -0.20009741
-0.5995854 -0.38873816 0.2157771 -0.37057954 0.12559327 -0.04911473 0.07717098 0.09060038
-0.31217512 0.19767706 0.3111386 0.12085207 -0.20833246 0.046470996 -0.27834123 -0.19817472
0.2449733 0.12684353 -0.27336618 0.06318072 -0.08021364 -0.18314846 -0.20438476 -0.34987372
-0.32191584 0.0115237795 0.09444956 -0.17096487 0.0990482 -0.4122064 -0.51846325 0.17608094
-0.04023746 -0.15915425 -0.50039804 -0.13879 -0.586836 -0.06966295 0.18063295 0.11829554
0.16884105 -0.0002410083 0.2763118 -0.33190003 -0.021428317 0.1501001 0.04792743 0.12043665
-0.35171294 -0.32801297 0.22722821 0.08104129 -0.19928586 -0.36225042 0.09116341 0.23778085
-0.13708209 -0.2390127 0.051740017 -0.15479822 -0.06196014 -0.4032787 0.222865 -0.26305443
0.23075397 0.05018414 -0.078398675 -0.36357996 -0.2795769 0.074324444 -0.48969337 0.3033821
0.2457319 -0.048238568 -0.36520875 -0.21405643 -0.21858709 -0.22002861 0.032234814 -0.028386103
0.03285005 -0.03419307 0.15996653 0.2596029 0.15095434 0.1393752 0.3972144 -0.4015318
0.0477725 -0.66397226 0.26414692 -0.22515814 0.1147203 0.12920627 0.083154425 0.1298903
-0.005097918 -0.12844089 0.13202488 0.042031992 -0.08484225 -0.14930288 0.3010695 0.3030594
-0.30826408 0.07895256 0.10828937 0.23370887 0.08679376 -0.33901724 0.21643692 -0.28872406
0.018415544 -0.24737512 0.36395037 -0.692232 -0.10720783 0.13930228 -0.21089564 0.15082803
-0.19765976 -0.13965513 0.060458772 0.2959759 0.095277496 0.18128906 0.0038759164 0.26072815
-0.15137175 -0.48107573 -0.2557475 0.0072385166 0.13822839 0.16253997 0.18328062 -0.5323261
-0.1382742 -0.36827987 -0.07458754 -0.40996146 -0.029901555 0.21295094 0.13815753 -0.08675064
0.32724983 -0.091032624 -0.20977668 -0.17804994 0.14062409 -0.12248164 0.14844528 -0.36243677
0.061212115 0.02516196 -0.14664474 0.34318003 -0.07225359 -0.19069873 -0.59236723 -0.1193613
-0.08740313 0.0743448 0.024331644 -0.2290236 -0.2005924 0.2293701 0.1447276 0.0065744626
0.1973018 -0.05311173 0.35387164 0.26872784 -0.22052337 -0.22690307 0.09441206 -0.1387301
-0.15703592 0.21280219 -0.21863334 0.072531216 -0.008686394 -0.6272871 -0.043986306 -0.35100704
-0.060979337 -0.052162055 0.030303014 0.094643734 0.011351004 -0.2321702 0.068939306 -0.40502462
-0.13187256 -0.5638885 -0.3059148 -0.047280166 0.19257583 -0.54324913 -0.6089368 -0.116256885
0.06331154 0.1480445 -0.692188 0.029807672 0.14180578 0.07193688 -0.2593285 -0.14780442
0.101447046 0.40067533 -0.38288108 0.17397669 -0.10481616 0.24136508 -0.30336744 0.3158899
-0.38887215 0.19496307 0.07868457 0.17011128 0.14072232 0.14776704 -0.082091816 0.14071175

fc2.bias f4 [10]
00000000: 4761 1dbe 8ae6 09be 66f5 82bd a7c9 e13d
00000010: 3870 f4bd 0681 abbd ea5f debb 2089 37bd
00000020: 77ca e93d bd1d acbc
-0.1536914 -0.1346685 -0.06394462 0.1102479 -0.119354665 -0.08374219 -0.006786336 -0.044808507
0.1141557 -0.021010274
